backend/ML-Hedger/chad_latest.pth (torch, 10565 bytes, 6 tensors)

policy_log_std f4 [6]
000000 00 00 00 00 00 00 00 00 00 00 00 00 00 00 00 00
       0.0 0.0 0.0 0.0
000010 00 00 00 00 00 00 00 00
       0.0 0.0

shared.0.weight f4 [64, 20]
000000 e2 0b ac bd 6d 72 03 be 84 93 09 3e 4f 02 0f be
       -0.08400704 -0.12836619 0.13435179 -0.13965724
000010 86 dc 56 be 5c 79 33 3e 60 41 42 bd b2 4d 53 3e
       -0.2098256 0.17526764 -0.047425628 0.20635107
000020 f4 3a 3d 3e 3c 39 3d be a0 cb 48 3d 04 9c 6e bd
       0.1847952 -0.18478864 0.049022317 -0.058254257
000030 f2 80 48 be dc 08 4a 3e 18 44 aa 3d e6 8e 2d 3e
       -0.19580439 0.19729942 0.08313769 0.16949043
000040 3c d3 ab 3d f8 51 5c be 17 53 e9 bd 0c cf 11 bd
       0.08389899 -0.21515644 -0.11392801 -0.035597846
000050 b0 d9 85 3c fc 70 1e be 30 8c f8 3c 70 95 18 bc
       0.016339153 -0.15472788 0.030340284 -0.009312972
000060 36 6e ed bd a8 58 26 3d 00 1d e9 3c ce 8f ec bd
       -0.11593287 0.040611893 0.028456211 -0.11550866
000070 54 51 c8 3d f0 c1 a8 3d c6 36 a1 bd a4 19 e5 3d
       0.09781137 0.08240116 -0.07871775 0.11186531
000080 30 6b e2 bc e0 ba ca 3b f8 e7 61 be 00 c8 d4 bc
       -0.027639002 0.006186828 -0.22061145 -0.025974274
000090 9c 23 a2 3d 31 87 ea bd 5c 97 47 be 80 03 b0 3b
       0.07916948 -0.11451567 -0.19491333 0.005371511
0000a0 70 69 5b 3d b8 65 57 bd d4 01 da 3d 0d 85 2a be
       0.05356735 -0.05258724 0.1064488 -0.16652317
0000b0 98 55 49 3e 34 b7 d9 3d 40 e8 85 bc f0 2c 7f 3c
       0.19661558 0.10630646 -0.016346097 0.015574679
0000c0 b0 78 20 3e 64 e7 29 be 71 2c 28 be f8 4e 34 be
       0.15671039 -0.16592175 -0.16423203 -0.17608249
0000d0 14 34 b3 bd f0 dc e1 3d 5a 13 0b be b6 d6 ad bd
       -0.087501675 0.110284686 -0.13581601 -0.084882185
0000e0 b4 7a 30 3e 60 e0 15 be 40 e4 32 3d 83 d7 39 be
       0.17234308 -0.14636374 0.043674707 -0.18148617
0000f0 c6 27 52 3e 9c 09 3c 3e 20 1a 54 3e 10 7b ca 3c
       0.20522985 0.1836304 0.20713091 0.024716884
000100 d6 b3 54 3e b1 9e 24 be e5 f3 53 be b6 bf 12 be
       0.20771727 -0.16076161 -0.20698507 -0.14330944
000110 e6 eb 0d be 54 ae 23 3e 18 2b 64 3e 4f 72 54 be
       -0.1385952 0.1598447 0.22282064 -0.2074673
000120 34 f5 0a 3e 94 17 1a be 99 61 46 be e8 75 46 3e
       0.135701 -0.15048057 -0.19373168 0.19380915
000130 2c 0e f1 3d d3 9d ce bd 40 0e 1d 3d e0 7b c9 3d
       0.11770281 -0.10088696 0.038343668 0.098380804
000140 2e 15 16 3e 3e 8d 1e 3e 04 dd 0c 3e f6 5c 36 be
       0.14656517 0.15483567 0.13756186 -0.178089
000150 c8 b1 ed bc d0 7e b7 bc ec e2 1b 3e 6d ae 3b be
       -0.029015437 -0.022399336 0.15223283 -0.18328257
000160 1a 44 d5 bd cc 4f 4f 3e 16 f2 1e be 16 f0 29 be
       -0.1041338 0.20245284 -0.15522036 -0.16595492
000170 0a a1 05 be 20 b9 8e 3c 2e 6c 01 be e2 e9 ab bd
       -0.13049713 0.017422259 -0.12638924 -0.08394219
000180 bc e7 1c be f0 b1 f5 3d 6c f9 33 3e 1c 57 1b 3e
       -0.15322775 0.119968295 0.17575616 0.15169948
000190 14 06 68 bd e8 d7 be bc a4 38 34 3e b4 9b 0c 3e
       -0.05664642 -0.023296311 0.17599732 0.13731271
0001a0 90 8a 45 3d 4e dd 22 3e 80 64 34 bc e4 43 80 3d
       0.048227847 0.15904734 -0.011010289 0.06262949
0001b0 55 f5 46 be 4e 0a 0d be 1c d0 f5 bd f0 ff c7 3d
       -0.19429524 -0.13773462 -0.12002584 0.09765613
0001c0 80 7a cb 3a 30 49 be 3d 58 71 03 3d f8 e2 0c 3e
       0.0015524179 0.09291303 0.032090515 0.13758457
0001d0 90 fa 3e bd 2c 4f 4d 3e e8 aa a1 bd 04 d4 20 be
       -0.046625674 0.20049733 -0.07893926 -0.15705878
0001e0 3c 26 58 3e e8 be 20 3d d0 a0 44 3e 20 96 df bd
       0.21108335 0.039244562 0.1920197 -0.10917306
0001f0 40 39 f1 3d c8 6b 3f 3e c8 be 5d 3e f8 e1 03 be
       0.11778498 0.18693459 0.21654809 -0.12879169
000200 28 f7 7a bd 04 8b f8 3d ce 8f 39 3e 16 69 8e bd
       -0.061270863 0.1213589 0.18121263 -0.06953637
000210 20 e4 27 be b0 15 e0 3d a5 34 4e be b8 7b 51 3d
       -0.16395617 0.109416366 -0.2013727 0.051143378
000220 b0 53 26 be 08 b2 9b 3c e2 c2 1f be 58 42 1a be
       -0.16242862 0.01900579 -0.15601686 -0.1506437
000230 f8 5e 36 bd e0 1a 33 3e 5e 30 98 bd 00 f9 85 3b
       -0.044524163 0.17490721 -0.074311 0.004088521
000240 c6 3e 08 3e c0 69 4e be 2c f5 83 bd b3 de 37 be
       0.13305196 -0.20157528 -0.06443247 -0.17956047
000250 e8 53 b5 3d 0a 55 32 be 26 c5 96 bd da f7 36 3e
       0.088538945 -0.17415252 -0.07361822 0.17867985
000260 00 dd 32 bd 8e 3c 43 be 52 32 3a 3e 00 45 c1 ba
       -0.043667793 -0.19066069 0.18183258 -0.0014745295
000270 89 05 38 be ac a0 ed 3d 70 63 9e 3d b2 b0 2e be
       -0.17970861 0.11602911 0.0773381 -0.17059591
000280 48 89 23 3e a0 0e 4f 3d 64 f6 46 bd 90 2e 70 bd
       0.15970337 0.050551057 -0.04857482 -0.058638155
000290 44 7e 6b bd 31 3e fd bd da e1 55 3e ea d3 07 be
       -0.057493463 -0.12365378 0.20886937 -0.13264433
0002a0 38 02 22 bd 60 d0 78 3d f4 fd af 3d f0 3c 93 bc
       -0.039552897 0.060745597 0.085933596 -0.017973393
0002b0 38 83 99 3d bc 24 6c bd e2 04 55 3e 78 87 b5 3c
       0.07495731 -0.05765222 0.20802644 0.022159323
0002c0 c0 02 82 bd e0 45 f8 bc c4 31 62 3e e8 d8 6c bd
       -0.06348181 -0.030306756 0.22089297 -0.057824045
0002d0 76 2e 08 be ec b9 27 be a3 7c e7 bd 60 30 05 3c
       -0.13298973 -0.16379517 -0.113030694 0.008129209
0002e0 50 71 01 3d 03 bf 4b be 4c f5 93 3d ec 76 21 3e
       0.031602204 -0.19897084 0.07224521 0.15768021
0002f0 e0 01 86 3c 38 6f 76 3d 2c 0b 7e bd 58 60 1c 3d
       0.016358316 0.06016466 -0.062022373 0.038177818
000300 d0 c1 2a be 30 ea 34 be 06 da 1d 3e b0 20 5d 3d
       -0.16675496 -0.1766746 0.154152 0.05398625
000310 7a 4c 09 3e 22 47 0c be 62 a4 31 be 28 d0 b4 bd
       0.1340808 -0.1369901 -0.17347863 -0.08828765
000320 c9 1a f9 bd b0 e4 48 3e f4 80 5b bd 3e 43 a6 bd
       -0.12163312 0.19618487 -0.053589776 -0.08118294
000330 b4 ee c9 3d 54 a8 07 be d0 39 53 3d 40 0e e0 3d
       0.09859982 -0.13247806 0.051568806 0.10940218
000340 60 8e 85 3c 74 31 cb bd 30 e9 42 3d 2c 1a 49 3e
       0.016303241 -0.09921542 0.047585666 0.1963889
000350 86 b6 60 3e 0c de f2 3d 86 1b 17 3e f0 eb 14 3d
       0.21944627 0.11858758 0.14756593 0.03635782
000360 10 df de 3d 24 2b 32 3e ac 6a ad 3d 77 ad 0e be
       0.108823895 0.1739927 0.08467612 -0.13933359
000370 74 3f ba bd 50 8d 04 3c 6a 63 0c 3e ea 44 60 3e
       -0.09094134 0.008090332 0.13709798 0.21901289
000380 34 01 aa 3d 30 6e f0 3d 48 40 44 bd 9e 19 b9 bd
       0.08301011 0.117397666 -0.047912866 -0.09038089
000390 74 d3 0d 3e 73 7e 42 be f3 cf 38 be 6c c4 51 bd
       0.13850194 -0.18993549 -0.18048076 -0.051212713
0003a0 88 af ee 3d 65 c8 5e be ac b6 cd 3d 30 88 6e 3d
       0.11654574 -0.21756132 0.100446075 0.058235347
0003b0 7c 7c 3c 3e c0 23 28 bc 84 3d 7e bd 40 12 d6 3b
       0.18406862 -0.01026243 -0.062070385 0.0065329373
0003c0 04 48 06 3e 40 87 c2 3d 80 42 38 3e 4c c7 60 3e
       0.1311341 0.09498453 0.17994118 0.21951026
0003d0 d4 8f 02 be aa a4 02 3e 9c df c1 bd a8 31 b0 bd
       -0.12750179 0.12758127 -0.09466478 -0.08603221
0003e0 08 01 de bc 24 67 13 be 78 c6 86 bc 32 6d f8 bd
       -0.027100101 -0.14394814 -0.01645206 -0.12130202
0003f0 00 5b 9d bb b6 ce 1e be 9c e9 09 3e 10 a6 25 be
       -0.004802108 -0.15508541 0.13468021 -0.16176629

shared.0.bias f4 [64]
000000 f0 59 2e 3d 3c b9 ca 3d 41 39 e3 bd cc de b7 bd
       0.04256624 0.09898612 -0.11094905 -0.08978042
000010 0c 24 fd 3d f4 1e 9a 3d c8 0e 2b 3d b0 0c bd 3c
       0.12360391 0.07525435 0.041762143 0.023077339
000020 34 d7 87 bd 38 59 29 3d 70 ac 3f be e0 51 ad bd
       -0.066328436 0.04134485 -0.18718123 -0.08462882
000030 2a f5 4e 3e d3 78 61 be b8 8b ab 3c 14 a4 b8 3d
       0.2021071 -0.22018747 0.020940647 0.090156704
000040 1a ee 9c bd 08 0c 2e 3d 58 a1 b0 bd 64 ab 42 bd
       -0.07662602 0.042491943 -0.08624524 -0.047526732
000050 ec 29 2b 3e 94 76 8e 3d 86 c9 3e 3e 18 f8 d6 3d
       0.1671521 0.06956211 0.18631563 0.10496539
000060 c8 74 5b bd 2a 1b 95 bd 16 09 ba bd dc e4 bd 3d
       -0.05357817 -0.07280572 -0.09083764 0.09272167
000070 14 82 52 3e c2 e6 10 3e 70 27 3c 3e 48 e3 ad 3d
       0.20557433 0.14150527 0.18374419 0.08490616
000080 fc 01 fc 3d 8c d8 f7 3d d6 a6 26 3e d0 d7 d7 3c
       0.12305066 0.1210185 0.1627458 0.026348025
000090 20 cc 09 be a0 bb 11 3d c8 ba a2 3d a8 2d a5 bc
       -0.13456774 0.035579324 0.07945782 -0.020163372
0000a0 00 c0 b1 bb 60 c9 2e bc 7a a4 aa bd db 64 db bd
       -0.0054244995 -0.010668129 -0.08332153 -0.10712596
0000b0 a8 6d 85 bc fe 7f 18 3e ac 1c c5 bd a0 2d 8f 3d
       -0.01628764 0.14892575 -0.09624609 0.06991124
0000c0 4a 07 88 bd e8 18 1c 3e 8b 51 cd bd 84 f7 88 3d
       -0.06642015 0.15243876 -0.10025319 0.06687835
0000d0 ca 69 54 be b7 55 55 be 08 f9 10 3d b2 6e 28 3e
       -0.2074348 -0.20833479 0.035393745 0.16448477
0000e0 7e 1b d7 bd 10 a4 84 bd d0 72 59 bc bc 83 a0 3d
       -0.105032906 -0.06476605 -0.013272002 0.07837626
0000f0 ab 07 cc bd 92 b7 a0 bd 43 f8 50 be 0e 3e 63 3e
       -0.099624 -0.07847513 -0.20407204 0.2219164

policy_mean.weight f4 [6, 64]
000000 10 46 dd bc 04 7e f8 3d 90 c4 d4 bd cc ef 99 3d
       -0.027010947 0.121334106 -0.10389054 0.07516441
000010 a8 a6 cf 3d 60 d1 26 bd 8e 4e 99 bd 9e 05 ea bd
       0.10139209 -0.04072702 -0.07485686 -0.11426853
000020 c8 89 f3 bc a6 1f 86 bd 16 96 8c 3d 20 a6 d0 3d
       -0.029728785 -0.06549005 0.06864564 0.10187936
000030 80 05 48 bb d6 08 da bd 62 f9 f7 bd 44 ee df 3d
       -0.0030520856 -0.106462166 -0.12108113 0.109341174
000040 70 25 65 3d 98 7e 4a 3d 58 1f 7e 3d f4 70 55 3d
       0.055943906 0.049437135 0.06204161 0.052109674
000050 fa 99 ea bd 80 d1 0f 3c 3a 55 b9 3d 10 40 94 3c
       -0.1145515 0.008777976 0.09049459 0.018096954
000060 46 85 96 3d f8 ff e7 bd 7a cf f0 3d 68 02 2e bd
       0.07349639 -0.11328119 0.11758323 -0.042482764
000070 e2 ae a9 bd 3e bd 83 bd 00 12 8f 3a 5c 58 6b 3d
       -0.082853094 -0.064325795 0.0010915399 0.057457313
000080 e0 2e f1 3c 80 ba f6 bc 38 26 b1 3c 7c e7 ac bd
       0.029441297 -0.030118227 0.02162467 -0.0844259
000090 de 3c b3 bd b0 64 20 3c c8 36 4b 3d d8 b4 4f 3d
       -0.08751844 0.009789631 0.04961279 0.050709575
0000a0 40 dc 06 bc f0 6a 47 3c 00 85 3e 3d 8c 87 dc bd
       -0.008231223 0.012171492 0.046513557 -0.10768041
0000b0 d0 f4 19 3c 52 d6 b5 bd 6e fd 83 3d 60 e8 d0 3b
       0.009396747 -0.08878769 0.06444822 0.0063753575
0000c0 b2 46 c7 bd 8c 1f 7a 3d 48 a2 3a 3d 86 54 a6 bd
       -0.09730281 0.06106524 0.04556492 -0.0812159
0000d0 ca 4a fe bd 70 24 8c 3d a2 77 9c 3d 40 eb 25 bd
       -0.12416609 0.068428874 0.07640006 -0.040507555
0000e0 c0 24 ee bb 88 7e c0 bc 62 0a e3 bd ac a0 55 3d
       -0.0072675645 -0.023497835 -0.11085965 0.05215518
0000f0 3a f5 ae 3d 58 7c eb 3c ba 88 95 bd dc 19 9c 3d
       0.08542867 0.028745815 -0.07301469 0.0762212
000100 18 fe b5 bc 50 b8 59 bd ea 6b e5 bd b4 ce e7 bd
       -0.022215888 -0.05315429 -0.112022236 -0.11318722
000110 1c 0c a5 bd 40 2a fa bd aa 32 98 bd 1a ab e8 3d
       -0.0805895 -0.1221509 -0.074315384 0.1136076
000120 58 ae 31 bd e6 4c bd bd c4 b6 c7 3d e2 29 be bd
       -0.043379158 -0.09243183 0.09751657 -0.09285332
000130 a6 b1 c1 3d 00 a0 48 3a 6c e0 97 bd 78 b6 a1 3c
       0.09457712 0.00076532364 -0.07415852 0.019740328
000140 40 6d 85 3b b0 5e 17 3c c6 e0 fb 3d 62 e3 fb bd
       0.0040718615 0.009238884 0.122987315 -0.12299229
000150 80 bf 51 3d d0 5e d5 bc 18 42 2d bd 94 84 14 3d
       0.05120802 -0.026046187 -0.04229936 0.03625925
000160 20 5c 70 3d f8 ff d2 3d 00 7a d0 3c b0 c4 90 3c
       0.058681607 0.103027284 0.0254488 0.017671913
000170 be 6b 87 bd 10 91 54 bc 94 b5 11 3d c8 0a b5 3c
       -0.06612347 -0.012974039 0.035573557 0.022099867
000180 60 90 89 bd a0 1e 6e 3d a8 d4 9f 3c f0 27 8a bd
       -0.067169905 0.058134675 0.019510582 -0.06745899
000190 88 3d cf 3d 94 bd 3e 3d 40 c2 18 bb e8 a4 63 bd
       0.10119158 0.046567515 -0.0023309141 -0.05557719
0001a0 38 a4 89 3c 60 b6 d3 3b be a1 b5 bd a2 4a a0 3d
       0.016801938 0.00646095 -0.088687405 0.07826735
0001b0 c0 d6 94 bd 8c bc 77 bd fc a0 33 bd 5a 1c d5 3d
       -0.07267523 -0.060482547 -0.0438547 0.10405798
0001c0 1c bd 6e bd 0c 8b 67 bd 82 ac b6 bd d6 cb bd bd
       -0.058285818 -0.05652909 -0.08919622 -0.09267394
0001d0 68 43 54 bd 14 7c 78 3d a8 69 be bd 64 f7 07 bd
       -0.051822096 0.060665205 -0.09297496 -0.033194914
0001e0 a0 78 39 bc 24 2e 62 3d 06 74 8c 3d 1e fa be bd
       -0.011320263 0.055219784 0.06858067 -0.0932505
0001f0 ac 47 33 3d 14 5e f3 bd 06 e1 e2 bd e0 21 6f 3d
       0.043769524 -0.11883178 -0.11078076 0.058381915
000200 3c 87 09 bd be 24 d8 bd 90 3d a9 bd ba b4 bd 3d
       -0.033576235 -0.10553883 -0.08263695 0.092629865
000210 fe 92 89 bd a8 e9 95 bd c0 1d cd 3c 1c 5e 3b 3d
       -0.0671749 -0.07319957 0.0250386 0.045744047
000220 90 d5 63 bd 76 3f ff 3d 58 b4 49 bd 20 5b df bb
       -0.05562359 0.12463276 -0.049244255 -0.006816283
000230 b2 8b c3 bd f8 e0 bd bc 3c de 4b bd 92 9c 80 bd
       -0.09548129 -0.023178563 -0.049772486 -0.062798634
000240 10 4a cc bc 48 a7 be 3d ce 62 9d 3d 30 dc 36 3c
       -0.02493766 0.0930925 0.07684861 0.011160895
000250 04 21 bb 3d fc 2e 55 bd d8 1e 75 bd 9a d4 ac bd
       0.091371566 -0.05204676 -0.059843868 -0.08438988
000260 22 73 b0 bd 8c 7a f9 bd 68 06 c7 3c 00 5c c5 3a
       -0.0861571 -0.12181577 0.024295047 0.0015057325
000270 00 b4 31 3c 6e 61 88 bd 20 df 22 bd bc 1b 77 3d
       0.010846138 -0.06659208 -0.03976357 0.060329184
000280 90 94 44 3d 68 45 19 bd 64 14 1d 3d 72 8a d9 bd
       0.047993243 -0.037419707 0.038349524 -0.106221095
000290 be 47 e4 3d 40 78 6e bb d8 da ca 3d 90 12 c3 bc
       0.11146496 -0.0036387593 0.099050224 -0.023812562
0002a0 04 63 5d bd 18 b2 97 3c 30 69 66 3c cc f7 e5 bd
       -0.054049507 0.018517539 0.014063165 -0.11228904
0002b0 fc 5e 7f bd 60 c0 85 bc c0 1a 36 3c e8 c7 b8 3c
       -0.062346444 -0.016327083 0.011114776 0.02255626
0002c0 f0 54 6c 3c 12 32 c6 3d 90 82 bc 3d b6 6a b8 bd
       0.014424548 0.09677519 0.0920459 -0.090047285
0002d0 28 53 ad 3c 64 4c 49 3d b8 c6 81 3d d6 dd 97 3d
       0.021157816 0.049145117 0.06336731 0.07415359
0002e0 60 64 ca bb 98 41 a1 3c d6 3a d2 bd ac 65 ab bd
       -0.0061765164 0.019684598 -0.10265128 -0.08369002
0002f0 d8 25 48 3d 50 41 c7 bd e8 f1 9b bc 10 05 bb 3c
       0.048864216 -0.09729254 -0.019036248 0.022829562
000300 ba 78 b5 3d 2e 4d a2 bd 96 83 e0 3d b4 52 6b bd
       0.088609174 -0.07924877 0.10962598 -0.05745192
000310 96 cc c3 bd 90 80 6f bd 20 d0 4e bd 50 04 fa 3d
       -0.09560506 -0.058472216 -0.050491452 0.12207854
000320 48 47 d4 bc 84 70 3a 3d 00 61 a0 ba 18 5c 85 bc
       -0.025912896 0.04551746 -0.001223594 -0.016279265
000330 96 44 d7 3d 66 3f fd 3d e0 83 5f bd 68 1d 50 3d
       0.105111286 0.12365608 -0.054569125 0.050809294
000340 ec a2 20 3d 60 d8 e1 3d d0 21 ec bc 2c 44 08 bd
       0.039217874 0.110275984 -0.028824717 -0.03326814
000350 b0 a9 65 bc 38 55 c6 bd c0 80 67 3b 42 bb 86 3d
       -0.014017507 -0.09684223 0.0035324544 0.06578685
000360 80 43 70 3c 40 01 0c bc b8 70 e4 bd a0 2a 10 bc
       0.014664531 -0.00854522 -0.11154312 -0.008799225
000370 e0 57 99 3b b0 bb 54 bc 98 ad e4 3d 6a d7 8d bd
       0.004679665 -0.012984201 0.11165923 -0.069258526
000380 b6 50 e1 3d e0 74 83 bc b8 bf 3a 3d 40 d2 8a 3b
       0.110017225 -0.016046941 0.045592993 0.0042364895
000390 5c c1 18 3d a2 5a 8a bd 5a a8 d2 bd f2 f9 8c bd
       0.037293777 -0.06755568 -0.10286017 -0.06883611
0003a0 b8 f5 0f bd ce f2 b0 bd 58 af 8f 3d 10 78 8e bd
       -0.035146445 -0.08640061 0.07015866 -0.06956494
0003b0 4c 04 77 bd 54 88 15 3d e8 76 28 bd 64 15 7b bd
       -0.060306832 0.036506966 -0.041129023 -0.061299697
0003c0 00 f0 44 3b 28 8d ff bc c0 f7 2b 3b a2 1c 90 3d
       0.0030050278 -0.031195238 0.00262402 0.07036711
0003d0 20 ea 8b bb b8 02 a1 3c e4 93 a0 bd d4 27 8b 3d
       -0.0042698532 0.019654617 -0.07840708 0.06794706
0003e0 b6 f8 c3 3d 84 f8 57 3d 7e 67 9b bd f8 37 bf 3c
       0.09568922 0.052727237 -0.07588099 0.023342118
0003f0 d4 e3 6b bd c8 62 cf bd 68 bd c7 bd 04 4e 0e 3d
       -0.05759032 -0.10126263 -0.09752923 0.03474237

policy_mean.bias f4 [6]
000000 c0 9b b9 bb 4c c8 55 bd 84 b3 65 3d 80 b3 e3 bb
       -0.005664319 -0.05219297 0.056079403 -0.0069488883
000010 f0 af b8 3c 4e 54 c3 3d
       0.022544831 0.09537564

value.weight f4 [1, 64]
000000 4e 47 ff 3d 4a 82 d1 bd 22 df 8c 3d e6 ed 9f 3d
       0.12464772 -0.10229929 0.06878497 0.078090474
000010 50 78 70 bd 92 4e bd bd d2 4f c2 bd 82 09 d5 3d
       -0.05870849 -0.09243502 -0.09487881 0.10402204
000020 4a 83 b1 bd d8 0b e0 3d f2 c5 ff 3d 20 de f1 3b
       -0.086676195 0.10939759 0.12488927 0.0073812157
000030 98 2c e7 3d 00 06 7d ba bc 8b 55 bd 40 99 aa bd
       0.112878025 -0.0009652078 -0.052135214 -0.08330011
000040 cc 14 7d bd bc 88 65 bd 8a d8 df 3d 46 da fd bd
       -0.06178741 -0.056038603 0.109299734 -0.12395148
000050 48 2e c2 bd 70 5c 6c 3c a8 b3 ea bd d8 fb de 3c
       -0.09481484 0.014426336 -0.11460048 0.027219698
000060 70 38 c9 bd a0 48 e8 bd d8 1f bf bc 0e 3a e6 3d
       -0.09825218 -0.11341977 -0.023330614 0.11241542
000070 38 30 2d bd ac 20 f3 bd fa 04 af 3d cc 07 aa bd
       -0.042282313 -0.11871466 0.08545871 -0.083022684
000080 16 0f a3 3d d6 51 ac bd 38 61 90 3c 60 32 33 bc
       0.07961862 -0.084140465 0.017624483 -0.010937303
000090 30 95 c0 3c e8 31 68 3d 5c 04 62 3d 40 32 24 3d
       0.023508638 0.05668822 0.05517994 0.040086985
0000a0 18 35 0b 3d 08 b8 bc bd 1e 24 bd bd e2 9d ff bd
       0.03398618 -0.09214789 -0.092354044 -0.12481286
0000b0 c0 c8 a7 bd 10 1c e9 3c e4 0a d0 bd 64 f0 d0 bd
       -0.08192587 0.028455764 -0.10158327 -0.10202101
0000c0 a4 fb 76 bd fe 69 d3 3d 30 ac 47 3d 98 62 bd 3d
       -0.060298577 0.10322951 0.048748195 0.09247321
0000d0 cc 90 a5 bd 80 ce fa 3b 70 a1 54 3c 50 fd 0b bd
       -0.080842584 0.0076540112 0.012977943 -0.034177125
0000e0 80 3b 0f bd 28 88 11 3d 78 be 87 bd 40 5c b7 bd
       -0.034968853 0.03553024 -0.06628126 -0.08953142
0000f0 9e b8 a7 bd b4 6f 4a bd 08 68 d5 3c ee e1 8a bd
       -0.0818951 -0.049422935 0.026050583 -0.06781374
